…
g text dataset
Generated list of sentences..
Indexing word vectors.
Found 400000 word vectors.
Found 5250 unique tokens.
Let's have a quick look at the word_index data..
[('the', 1), ('and', 2), ('a', 3), ('to', 4), ('is', 5), ('I', 6), ('was', 7), ('of', 8), ('for', 9), ('The', 10)]
Shape of data tensor: (3044, 69)
(3044, 69)
Preparing embedding matrix.
Training model.
_________________________________________________________________
Layer (type)                 Output Shape              Param #   
=================================================================
embedding_1 (Embedding)      (None, 69, 300)           1575300   
_________________________________________________________________
conv1d_1 (Conv1D)            (None, 69, 100)           150100    
_________________________________________________________________
activation_1 (Activation)    (None, 69, 100)           0         
_________________________________________________________________
max_pooling1d_1 (MaxPooling1 (None, 13, 100)           0         
_________________________________________________________________
conv1d_2 (Conv1D)            (None, 13, 50)            15050     
_________________________________________________________________
activation_2 (Activation)    (None, 13, 50)            0         
_________________________________________________________________
max_pooling1d_2 (MaxPooling1 (None, 6, 50)             0         
_________________________________________________________________
flatten_1 (Flatten)          (None, 300)               0         
_________________________________________________________________
dense_1 (Dense)              (None, 500)               150500    
_________________________________________________________________
activation_3 (Activation)    (None, 500)               0         
_________________________________________________________________
dense_2 (Dense)              (None, 69)                34569     
_________________________________________________________________
activation_4 (Activation)    (None, 69)                0         
=================================================================
Total params: 1,925,519
Trainable params: 350,219
Non-trainable params: 1,575,300
_________________________________________________________________
None
Train on 2739 samples, validate on 305 samples
Epoch 1/50

  10/2739 [..............................] - ETA: 53:52 - loss: 6.0215 - acc: 0.0000e+00
  20/2739 [..............................] - ETA: 27:33 - loss: 5.4508 - acc: 0.0000e+00
…
